models/biomass/cper_bm_pls_boot_old/old/CPER_HLS_to_VOR_biomass_model_pls_20241015_plot_resids.npy (npy, 19432 bytes, 1 tensors)

array f8 [2413]
00000000: 140d 5dac bb02 75c0 20da fc83 a694 5e40
00000010: c468 1d02 1a16 7340 e07c e0e6 a94e 79c0
00000020: f0b1 27d3 8318 66c0 485f 5cc4 0fb2 73c0
00000030: d86c 6b85 ee09 68c0 a8f8 1344 c79f 61c0
00000040: 8021 a5df a95d 3d40 b069 a753 571b 5740
00000050: c080 3ef1 4bec 5040 80c5 b56c 270d 38c0
00000060: f4fa 9adb 8254 83c0 28bc 2b6d dfde 60c0
00000070: f890 3c15 f482 6ec0 4cfe 8f50 a72e 71c0
00000080: dc8e 7512 c7e8 72c0 0e35 8fbc 59f6 70c0
00000090: 58b1 5639 19d0 6cc0 d00a a873 03e1 71c0
000000a0: f0d5 462c 5b81 55c0 3006 19e5 90cf 55c0
000000b0: 40fd a792 b0dc 3240 0044 bcb8 af50 6dc0
000000c0: f81c 7490 a361 5dc0 803b 4e2a fefb 4540
000000d0: b82d a8ee ef04 62c0 1055 0bce 56e3 68c0
000000e0: b819 3229 3fd9 57c0 e807 581b 113c 5dc0
000000f0: 0026 5462 845f 5ec0 2880 8eac 7039 5ec0
00000100: 209a a4b9 d84d 4cc0 1823 de85 300a 57c0
00000110: 785e 6bd2 e59d 72c0 70ab 6342 063f 5840
00000120: 00ca b902 9dbb 5cc0 9cc8 3393 716e 50c0
00000130: d015 d0b4 3b66 59c0 7ca9 f761 2512 6ec0
00000140: 0896 ceab 1c75 5240 c0db 6e76 eeb4 3440
00000150: 3cf7 3cfd 9c49 61c0 3033 1dbf 7cc6 6540
00000160: 90fe 9f68 fd3d 7040 5856 df6c 6ad2 7140
00000170: d8f4 15b5 602f 5f40 5c5e 1011 06e7 7840
00000180: 40a9 2de9 f409 5140 caeb 0506 fdaf 6640
00000190: 30d9 aecd 5d50 4040 e2ab 2d65 fef9 6540
000001a0: 30eb fa00 69fc 25c0 f889 7c0f a6f0 44c0
000001b0: 7814 80d7 dc25 44c0 18ae 1fb7 c4ad 4040
000001c0: 2cdc 1909 1e36 6240 0866 94db 99b3 6a40
000001d0: 406b 5baf 8507 2ec0 a8fb f0b8 330a 6540
000001e0: 5886 708e 0f91 6540 b452 55da ad96 6440
000001f0: 60d7 3a5f a71b 2940 3061 df50 eff1 5640
00000200: 3824 0823 e79a 4940 b0eb 52db f0e1 5840
00000210: f8de 93e9 daa1 4c40 b624 c5ce 08be 6d40
00000220: 923f 6cdc d973 7640 316f eba0 feb8 7340
00000230: d381 05b3 85a8 7240 746c bd44 e2b2 4640
00000240: e3d9 eab6 dd0e 8440 00eb 3bb3 76b6 4e40
00000250: c077 e4df e225 3bc0 acf8 a49a ad7c 7c40
00000260: a0ed 4139 40b4 6540 80c6 d41b 1bf7 13c0
00000270: 002b d7b4 ebae 62c0 00f3 9427 1162 3fc0
00000280: 30fb e69f 94f7 6140 8001 5cbe 60f9 5d40
00000290: 3c14 8179 3728 71c0 0053 630c f7d8 60c0
000002a0: 5ca5 6056 fc96 62c0 e81e 2e43 f2d7 5f40
000002b0: b087 038c b458 6ec0 22c6 864b 4575 76c0
000002c0: 2800 3c0e 564d 6fc0 0019 99cd e83c 72c0
000002d0: 6818 adba cd7a 73c0 c6cf 184b 88db 73c0
000002e0: c0db 0da9 bdc6 41c0 4049 51b4 00f1 5fc0
000002f0: 085b 6b8f c6a5 71c0 f00a 9da8 58d4 6cc0
00000300: a079 4177 6aac 5dc0 1863 935b a078 70c0
00000310: 20cf da60 8281 6ec0 b818 f23d 1d2c 6dc0
00000320: 50af 3894 6cf5 5740 bc68 fc91 8c31 6040
00000330: 803d 3c72 a7ed 2740 d881 3130 3ae4 5840
00000340: 8009 2e62 c914 5640 e0eb 50dc 5411 4a40
00000350: d09c c74a a622 4d40 80f4 ef4d b0ff 15c0
00000360: 2050 b467 b168 30c0 a0f6 262c 8039 4ac0
00000370: 7c7e ff46 32e6 63c0 4056 0c95 0818 5bc0
00000380: fc2b 7e3a a243 65c0 48c8 d59c de70 5cc0
00000390: 4030 2202 0cac 2bc0 9038 759e 1884 6240
000003a0: 209a 0d70 4fae 3440 8090 486f e346 4540
000003b0: d01c f786 bdd1 4ac0 c0a2 7fb1 e04c 4940
000003c0: e0c0 837c d70c 6b40 a0d0 fdd1 51b1 6840
000003d0: 909c 3a2f fe44 5d40 18dc 2c50 358f 6b40
000003e0: 1a6f 2c2c 89b7 7540 1a78 f582 a25b 7740
000003f0: 18ea 62dc bca6 5540 e414 c31b e726 6c40
00000400: 40a6 ddce 79cf 4c40 b09a 2e81 8864 5b40
00000410: 6047 aaf7 91e5 36c0 1451 a4d8 a823 5a40
00000420: b850 dfbc cd7e 5640 14ab ed91 2f6d 4540
00000430: 088c 3ceb db59 5cc0 80e5 1edb 8882 02c0
00000440: c0a8 e61f 8d50 3dc0 3041 dea1 8ed0 4bc0
00000450: b0a8 3164 0707 6cc0 88c8 e8c4 1ce0 6340
00000460: cc58 2639 fa54 6340 e0b3 8298 796e 4940
00000470: 50b8 5fed 8514 55c0 20b2 22f3 5c75 31c0
00000480: e0e8 dc6e af00 5240 9438 82ef 8016 5340
00000490: d077 8922 3a02 4ec0 58c5 fd2f 5770 5b40
000004a0: 18c3 2eb5 f584 7b40 f045 2f21 344f 7440
000004b0: 2227 85fe c8fd 6440 6435 4f66 8078 7040
000004c0: 549e 2dda 4c8e 6e40 2c41 796d a796 6240
000004d0: 980b 6dfd 63ef 62c0 9057 caa2 8d7c 47c0
000004e0: c035 6959 34a8 5840 60c7 42d0 bd72 4240
000004f0: 3057 2bf5 7997 68c0 009e cec2 fde0 2e40
00000500: da95 5f91 359f 81c0 48d7 820c f95d 75c0
00000510: b09c 4274 5383 5640 504d 5051 5f15 57c0
00000520: c050 836f 63e9 3f40 905f 68dc 46a2 5f40
00000530: 6469 b80d 2f4b 64c0 4863 731a c589 77c0
00000540: c01f a6a5 2e2d 41c0 40b9 857b ac0d 8640
00000550: 5439 b9f8 87e3 8140 6882 b3c5 84e4 7040
00000560: 58b1 5593 a813 5bc0 0c20 a694 312b 73c0
00000570: 804e 7720 62c6 4840 a895 e384 322f 7d40
00000580: 28c1 291d 0370 6240 00e5 614b 575c 5740
00000590: 98b6 acdf 0acc 62c0 2092 a467 6aeb 60c0
000005a0: 90be e1be e63a 8140 bc0b e0c8 d6fe 8c40
000005b0: f00f b0ca 740e 5440 8830 f540 de6b 72c0
000005c0: be62 780a 9cb9 70c0 ccb9 315e 5039 63c0
000005d0: fe5e c39e 6054 8140 be68 3bc8 d783 8940
000005e0: e013 187d aa1d 5740 8037 7f93 f7db 2bc0
000005f0: eca5 36fc 2df5 64c0 f07d 189a b234 53c0
00000600: c00a 2b7e b6b4 6ac0 b4af b461 ab8b 7340
00000610: 3820 11dc 978a 68c0 9247 888f e614 72c0
00000620: 9ec5 eeb4 a45f 71c0 44b1 db01 365b 6fc0
00000630: 80a0 91e2 8cb8 7940 0812 49ee 6891 8340
00000640: e8da 9944 4184 6b40 e0d2 5395 dbb4 4640
00000650: 6862 9a09 8334 6ac0 a4ff 0916 0d46 62c0
00000660: c026 3d81 d981 72c0 842e 9773 492f 7d40
00000670: 60cc 0aa8 4df4 6fc0 09ac f38f 3472 81c0
00000680: 3cba 6f9e ae5e 61c0 5045 e79e 9190 66c0
00000690: 3842 0e33 be7c 6840 5e76 c4d6 d3ad 8240
000006a0: c045 d233 2ac5 48c0 200b bf6c 2c67 42c0
000006b0: ecd0 184a f569 5dc0 d026 7467 9cfa 49c0
000006c0: 7830 27c4 259d 60c0 6cbf 3c57 8d17 8240
000006d0: 7cf3 38bf c9ce 68c0 debd 6d1f a9ad 72c0
000006e0: 4642 e210 76d3 61c0 50c5 e197 e448 65c0
000006f0: 8057 a881 af4e 41c0 6011 a53d f3f1 7340
00000700: c0e0 8758 fd39 2a40 009c 45e5 6dba 12c0
00000710: 9cf7 a0cf 0720 5940 a061 d288 aed8 3840
00000720: 502f 3607 4d8e 5ec0 8c43 f643 ca1f 7d40
00000730: 583e b3b2 8e16 6940 c8a3 7ae7 8bab 60c0
00000740: cc08 3c56 5a8b 5440 f083 b903 6eba 3740
00000750: 00f8 0fbd 53f9 2dc0 508c 58fd c714 7a40
00000760: 629c ed5a ce77 7040 90d9 cbd2 fd82 5440
00000770: ac32 490c cb3e 6040 f0f2 93a5 bbcb 5040
00000780: 0047 0cdf 7d18 7ac0 3488 5bab c22d 6740
00000790: 720b de82 d119 60c0 d5f3 6f03 2b0b 72c0
000007a0: b0dc 79c5 4dd1 3b40 606e e4d0 65fe 3f40
000007b0: e272 424e 9d9f 70c0 88d4 10dd b712 6a40
000007c0: e800 df5e eb8e 6240 20ed 41dd 62e3 31c0
000007d0: f89a c43f 94bc 5440 809e 92b7 8838 3540
000007e0: 5a9d 52f1 b30e 82c0 f061 6ead 8060 5ec0
000007f0: b82f 66f7 bec7 76c0 0150 5002 f33e 83c0
-336.17081867549973 122.32266330425819 305.3813496731566 -404.91647994699997 -176.7660918975157 -315.12884937365425 -192.31036635381201 -140.99307445431373
29.36587331563487 92.42720500325117 67.6921351538067 -24.051382822397045 -618.5638954265437 -134.9647737364005 -244.09229528264382 -274.91584831473733
-302.54860158845054 -271.39690833988504 -230.50307909900835 -286.0633427204275 -86.02118975560711 -87.24321868366019 18.862069288266184 -234.52145039339666
-117.52560817088295 43.96869400806372 -144.15428860518819 -199.1043462964376 -95.39448003666519 -116.93854411694304 -121.49245508401509 -120.89750207820964
-56.60817642724237 -92.1592116040523 -297.8686088747122 96.98475703938834 -114.93145816939796 -65.72568206841464 -101.59739418335744 -240.56706331607336
73.82987494635029 20.70676365095619 -138.3004137221086 174.20272784903636 259.87436735627944 285.1509827350724 124.74027754921133 398.43898111719113
68.15557317217917 181.49963666111427 32.62786265409011 175.81230410499762 -10.992988615636563 -41.88006776410106 -40.29580205682663 33.35756577536466
145.6911664490775 213.612531461564 -15.01469181052164 168.31881377284049 172.5331489751577 164.70872227348957 12.554011321957375 91.78023168386858
51.21017873666318 99.5303257283947 57.2644931766535 237.9385751581628 359.24068872723103 315.5621651837019 298.5326414313433 45.3975301670952
641.8582590434784 61.42549744058306 -27.14799308135821 455.792383808536 173.6328398025189 -4.991314349042682 -149.46627275490755 -31.38307425867515
143.73689265359417 119.89652976021716 -274.5135436098242 -134.78015727423917 -148.7183029067627 127.37416152481057 -242.77203942002734 -359.32941773077084
-250.41675483435506 -291.8068366985681 -311.67522685637823 -317.7207747430042 -35.55266297508888 -127.76566799104785 -282.360976619108 -230.63582258865745
-118.69399815935185 -263.53914983342247 -244.04716532455586 -233.37856957706913 95.83475213561655 129.54840945528656 11.964168138364357 99.56605152926147
88.3247914743024 52.13540224028816 58.27069983240801 -5.499695985575386 -16.408956986924863 -52.44922401335248 -159.19363737012088 -108.37552381710793
-170.1135532821935 -113.76358719708617 -13.836029116319082 148.12800524611202 20.680899623223127 42.55381575625597 -53.63859641138117 50.600607096979275
216.40130449040498 197.54123782704573 117.078014189947 220.47525795709294 347.47098939282444 373.72717567335496 86.60527715358364 225.21571148015857
57.620904787280324 109.57083158065029 -22.896758536407447 104.55718055769495 89.98130723770271 42.853014222191774 -113.40404778397362 -2.3137375944904193
-29.314653390706326 -55.62935279228475 -224.2196522684003 159.00351186242574 154.65554482926962 50.863085807628295 -84.32067427013067 -17.458449550600676
72.01070758412561 76.35161960331817 -60.01739913666063 109.75532150060951 440.3099872423786 324.9502269598588 167.93078542715472 263.53134756985514
244.4468813792215 148.707937943292 -151.4809558038512 -46.97307238464339 98.62819514536295 36.89641764889416 -196.73363741364437 15.439436042520356
-563.9011561839682 -341.8733029471373 90.05196863656124 -92.33394272653572 31.911673516807014 126.5355750102301 -162.34949384706408 -376.61062092851034
-34.35298605548405 705.7092199752005 572.4413923712368 270.28241510506496 -108.30716403358872 -306.69960465328836 49.54986959291 466.94983376407845
147.50038011698894 93.44282803115857 -150.3763273595148 -135.3567388738893 551.362668765667 927.8548753264981 80.22587840264873 -294.7417611673086
-267.6005959227149 -153.79106054031433 554.5471778167118 816.4803623811092 92.46353080130893 -13.929623231200594 -167.66186342881645 -76.82340099708358
-213.6472769585289 312.72934122639276 -196.3310375532617 -289.3062892268582 -277.97771161337175 -250.85034268292122 411.5343957603982 626.1762357433918
220.13296728181672 45.412951150826984 -209.64099579003528 -146.18909742310382 -296.1156017674184 466.9554325013671 -255.63447954281855 -558.2756651913525
-138.95881578275464 -180.51777596635884 195.8982177046289 597.7284369801162 -49.54035041587076 -36.806043237002314 -117.6555962793679 -51.95789807483163
-132.91086013464133 578.944014048187 -198.46212731478943 -298.8537897383484 -142.60816234770954 -170.27790445419168 -34.614731032560485 319.12188496093404
13.11326100023905 -4.682059843419665 100.50047674865203 24.84641318451179 -122.22345142642484 465.98688121983355 200.70491919525625 -133.36082815125542
82.17738872397166 23.728241188804475 -14.986966999244032 417.2988255938444 263.48787968460795 82.04674215228283 129.96228613182518 67.18332805107252
-417.5307302932342 185.43001335027077 -128.80682509773357 -288.6980013249534 27.817592947246055 31.993741088647198 -265.9759047122626 208.58494427954815
148.46623176150683 -17.888227299304276 82.94654840659848 21.220836137099923 -577.8378626302976 -121.50785384921596 -364.48412265698016 -615.8686567568221
